…
net: "cnn_tracker/train_val_affine.prototxt"
I0106 19:56:26.981334  4165 solver.cpp:67] Creating training net from net file: cnn_tracker/train_val_affine.prototxt
I0106 19:56:26.982069  4165 net.cpp:275] The NetState phase (0) differed from the phase (1) specified by a rule in layer data
I0106 19:56:26.982257  4165 net.cpp:39] Initializing net from parameters: 
name: "affineRegressionNet"
layers {
  top: "data"
  top: "label"
  name: "data"
  type: HDF5_DATA
  hdf5_data_param {
    source: "/media/philo/1T_HardDisk/cnn_affine_data/train.txt"
    batch_size: 100
  }
  include {
    phase: TRAIN
  }
}
layers {
  bottom: "data"
  top: "data1"
  top: "data2"
  name: "slice_pair"
  type: SLICE
  slice_param {
    slice_dim: 1
    slice_point: 3
  }
}
layers {
  bottom: "data1"
  top: "conv1"
  name: "conv1"
  type: CONVOLUTION
  blobs_lr: 1
  blobs_lr: 2
  weight_decay: 1
  weight_decay: 0
  convolution_param {
    num_output: 96
    kernel_size: 7
    stride: 2
    weight_filler {
      type: "xavier"
    }
  }
  param: "conv1_w"
  param: "conv1_b"
}
layers {
  bottom: "conv1"
  top: "conv1"
  name: "relu1"
  type: RELU
}
layers {
  bottom: "conv1"
  top: "conv2"
  name: "conv2"
  type: CONVOLUTION
  blobs_lr: 1
  blobs_lr: 2
  weight_decay: 1
  weight_decay: 0
  convolution_param {
    num_output: 256
    kernel_size: 5
    stride: 2
    weight_filler {
      type: "xavier"
    }
  }
  param: "conv2_w"
  param: "conv2_b"
}
layers {
  bottom: "conv2"
  top: "conv2"
  name: "relu2"
  type: RELU
}
layers {
  bottom: "conv2"
  top: "conv3"
  name: "conv3"
  type: CONVOLUTION
  blobs_lr: 1
  blobs_lr: 2
  weight_decay: 1
  weight_decay: 0
  convolution_param {
    num_output: 384
    kernel_size: 3
    stride: 1
    weight_filler {
      type: "xavier"
    }
  }
  param: "conv3_w"
  param: "conv3_b"
}
layers {
  bottom: "conv3"
  top: "conv3"
  name: "relu3"
  type: RELU
}
layers {
  bottom: "conv3"
  top: "conv4"
  name: "conv4"
  type: CONVOLUTION
  blobs_lr: 1
  blobs_lr: 2
  weight_decay: 1
  weight_decay: 0
  convolution_param {
    num_output: 256
    kernel_size: 3
    stride: 1
    weight_filler {
      type: "xavier"
    }
  }
  param: "conv4_w"
  param: "conv4_b"
}
layers {
  bottom: "conv4"
  top: "conv4"
  name: "relu4"
  type: RELU
}
layers {
  bottom: "data2"
  top: "conv1_p"
  name: "conv1_p"
  type: CONVOLUTION
  blobs_lr: 1
  blobs_lr: 2
  weight_decay: 1
  weight_decay: 0
  convolution_param {
    num_output: 96
    kernel_size: 7
    stride: 2
    weight_filler {
      type: "xavier"
    }
  }
  param: "conv1_w"
  param: "conv1_b"
}
layers {
  bottom: "conv1_p"
  top: "conv1_p"
  name: "relu1_p"
  type: RELU
}
layers {
  bottom: "conv1_p"
  top: "conv2_p"
  name: "conv2_p"
  type: CONVOLUTION
  blobs_lr: 1
  blobs_lr: 2
  weight_decay: 1
  weight_decay: 0
  convolution_param {
    num_output: 256
    kernel_size: 5
    stride: 2
    weight_filler {
      type: "xavier"
    }
  }
  param: "conv2_w"
  param: "conv2_b"
}
layers {
  bottom: "conv2_p"
  top: "conv2_p"
  name: "relu2_p"
  type: RELU
}
layers {
  bottom: "conv2_p"
  top: "conv3_p"
  name: "conv3_p"
  type: CONVOLUTION
  blobs_lr: 1
  blobs_lr: 2
  weight_decay: 1
  weight_decay: 0
  convolution_param {
    num_output: 384
    kernel_size: 3
    stride: 1
    weight_filler {
      type: "xavier"
    }
  }
  param: "conv3_w"
  param: "conv3_b"
}
layers {
  bottom: "conv3_p"
  top: "conv3_p"
  name: "relu3_p"
  type: RELU
}
layers {
  bottom: "conv3_p"
  top: "conv4_p"
  name: "conv4_p"
  type: CONVOLUTION
  blobs_lr: 1
  blobs_lr: 2
  weight_decay: 1
  weight_decay: 0
  convolution_param {
    num_output: 256
    kernel_size: 3
    stride: 1
    weight_filler {
      type: "xavier"
    }
  }
  param: "conv4_w"
  param: "conv4_b"
}
layers {
  bottom: "conv4_p"
  top: "conv4_p"
  name: "relu4_p"
  type: RELU
}
layers {
  bottom: "conv4"
  bottom: "conv4_p"
  top: "concat"
  name: "concat"
  type: CONCAT
  concat_param {
    concat_dim: 1
  }
}
layers {
  bottom: "concat"
  top: "fc5"
  name: "fc5"
  type: INNER_PRODUCT
  inner_product_param {
    num_output: 128
    weight_filler {
      type: "xavier"
    }
  }
}
layers {
  bottom: "fc5"
  top: "fc5"
  name: "relu5"
  type: RELU
}
layers {
  bottom: "fc5"
  top: "fc6"
  name: "fc6"
  type: INNER_PRODUCT
  inner_product_param {
    num_output: 32
    weight_filler {
      type: "xavier"
    }
  }
}
layers {
  bottom: "fc6"
  top: "fc6"
  name: "relu6"
  type: RELU
}
layers {
  bottom: "fc6"
  top: "fc7"
  name: "fc7"
  type: INNER_PRODUCT
  inner_product_param {
    num_output: 8
    weight_filler {
      type: "xavier"
    }
  }
}
layers {
  bottom: "fc7"
  bottom: "label"
  top: "loss"
  name: "loss"
  type: EUCLIDEAN_LOSS
}
state {
  phase: TRAIN
}
I0106 19:56:26.982406  4165 net.cpp:67] Creating Layer data
I0106 19:56:26.982427  4165 net.cpp:356] data -> data
I0106 19:56:26.982453  4165 net.cpp:356] data -> label
I0106 19:56:26.982501  4165 net.cpp:96] Setting up data
I0106 19:56:26.983122  4165 hdf5_data_layer.cpp:57] Loading filename from /media/philo/1T_HardDisk/cnn_affine_data/train.txt
I0106 19:56:26.983214  4165 hdf5_data_layer.cpp:69] Number of files: 3
I0106 19:56:26.983232  4165 hdf5_data_layer.cpp:29] Loading HDF5 file/media/philo/1T_HardDisk/cnn_affine_data/train_batch_0.h5
I0106 19:56:48.739902  4165 hdf5_data_layer.cpp:49] Successully loaded 50000 rows
I0106 19:56:48.739966  4165 hdf5_data_layer.cpp:81] output data size: 100,6,64,64
I0106 19:56:48.739998  4165 net.cpp:103] Top shape: 100 6 64 64 (2457600)
I0106 19:56:48.740015  4165 net.cpp:103] Top shape: 100 8 1 1 (800)
I0106 19:56:48.740037  4165 net.cpp:67] Creating Layer slice_pair
I0106 19:56:48.740049  4165 net.cpp:394] slice_pair <- data
I0106 19:56:48.740069  4165 net.cpp:356] slice_pair -> data1
I0106 19:56:48.740093  4165 net.cpp:356] slice_pair -> data2
I0106 19:56:48.740109  4165 net.cpp:96] Setting up slice_pair
I0106 19:56:48.744561  4165 net.cpp:103] Top shape: 100 3 64 64 (1228800)
I0106 19:56:48.744580  4165 net.cpp:103] Top shape: 100 3 64 64 (1228800)
I0106 19:56:48.744601  4165 net.cpp:67] Creating Layer conv1
I0106 19:56:48.744613  4165 net.cpp:394] conv1 <- data1
I0106 19:56:48.744627  4165 net.cpp:356] conv1 -> conv1
I0106 19:56:48.744644  4165 net.cpp:96] Setting up conv1
I0106 19:56:48.745652  4165 net.cpp:103] Top shape: 100 96 29 29 (8073600)
I0106 19:56:48.745689  4165 net.cpp:67] Creating Layer relu1
I0106 19:56:48.745705  4165 net.cpp:394] relu1 <- conv1
I0106 19:56:48.745719  4165 net.cpp:345] relu1 -> conv1 (in-place)
I0106 19:56:48.745734  4165 net.cpp:96] Setting up relu1
I0106 19:56:48.745748  4165 net.cpp:103] Top shape: 100 96 29 29 (8073600)
I0106 19:56:48.745766  4165 net.cpp:67] Creating Layer conv2
I0106 19:56:48.745781  4165 net.cpp:394] conv2 <- conv1
I0106 19:56:48.745796  4165 net.cpp:356] conv2 -> conv2
I0106 19:56:48.745811  4165 net.cpp:96] Setting up conv2
I0106 19:56:48.751588  4165 net.cpp:103] Top shape: 100 256 13 13 (4326400)
I0106 19:56:48.751616  4165 net.cpp:67] Creating Layer relu2
I0106 19:56:48.751628  4165 net.cpp:394] relu2 <- conv2
I0106 19:56:48.751641  4165 net.cpp:345] relu2 -> conv2 (in-place)
I0106 19:56:48.751655  4165 net.cpp:96] Setting up relu2
I0106 19:56:48.751668  4165 net.cpp:103] Top shape: 100 256 13 13 (4326400)
I0106 19:56:48.751683  4165 net.cpp:67] Creating Layer conv3
I0106 19:56:48.751695  4165 net.cpp:394] conv3 <- conv2
I0106 19:56:48.751709  4165 net.cpp:356] conv3 -> conv3
I0106 19:56:48.751724  4165 net.cpp:96] Setting up conv3
I0106 19:56:48.759564  4165 net.cpp:103] Top shape: 100 384 11 11 (4646400)
I0106 19:56:48.759603  4165 net.cpp:67] Creating Layer relu3
I0106 19:56:48.759615  4165 net.cpp:394] relu3 <- conv3
I0106 19:56:48.759629  4165 net.cpp:345] relu3 -> conv3 (in-place)
I0106 19:56:48.759655  4165 net.cpp:96] Setting up relu3
I0106 19:56:48.759681  4165 net.cpp:103] Top shape: 100 384 11 11 (4646400)
I0106 19:56:48.759697  4165 net.cpp:67] Creating Layer conv4
I0106 19:56:48.759711  4165 net.cpp:394] conv4 <- conv3
I0106 19:56:48.759723  4165 net.cpp:356] conv4 -> conv4
I0106 19:56:48.759740  4165 net.cpp:96] Setting up conv4
I0106 19:56:48.768008  4165 net.cpp:103] Top shape: 100 256 9 9 (2073600)
I0106 19:56:48.768039  4165 net.cpp:67] Creating Layer relu4
I0106 19:56:48.768051  4165 net.cpp:394] relu4 <- conv4
I0106 19:56:48.768064  4165 net.cpp:345] relu4 -> conv4 (in-place)
I0106 19:56:48.768079  4165 net.cpp:96] Setting up relu4
I0106 19:56:48.768091  4165 net.cpp:103] Top shape: 100 256 9 9 (2073600)
I0106 19:56:48.768107  4165 net.cpp:67] Creating Layer conv1_p
I0106 19:56:48.768121  4165 net.cpp:394] conv1_p <- data2
I0106 19:56:48.768134  4165 net.cpp:356] conv1_p -> conv1_p
I0106 19:56:48.768151  4165 net.cpp:96] Setting up conv1_p
I0106 19:56:48.768286  4165 net.cpp:103] Top shape: 100 96 29 29 (8073600)
I0106 19:56:48.768304  4165 net.cpp:436] Sharing parameters 'conv1_w' owned by layer 'conv1', param index 0
I0106 19:56:48.768333  4165 net.cpp:436] Sharing parameters 'conv1_b' owned by layer 'conv1', param index 1
I0106 19:56:48.768348  4165 net.cpp:67] Creating Layer relu1_p
I0106 19:56:48.768359  4165 net.cpp:394] relu1_p <- conv1_p
I0106 19:56:48.768371  4165 net.cpp:345] relu1_p -> conv1_p (in-place)
I0106 19:56:48.768384  4165 net.cpp:96] Setting up relu1_p
I0106 19:56:48.768396  4165 net.cpp:103] Top shape: 100 96 29 29 (8073600)
I0106 19:56:48.768412  4165 net.cpp:67] Creating Layer conv2_p
I0106 19:56:48.768424  4165 net.cpp:394] conv2_p <- conv1_p
I0106 19:56:48.768437  4165 net.cpp:356] conv2_p -> conv2_p
I0106 19:56:48.768453  4165 net.cpp:96] Setting up conv2_p
I0106 19:56:48.773720  4165 net.cpp:103] Top shape: 100 256 13 13 (4326400)
I0106 19:56:48.773742  4165 net.cpp:436] Sharing parameters 'conv2_w' owned by layer 'conv2', param index 0
I0106 19:56:48.773794  4165 net.cpp:436] Sharing parameters 'conv2_b' owned by layer 'conv2', param index 1
I0106 19:56:48.773814  4165 net.cpp:67] Creating Layer relu2_p
I0106 19:56:48.773828  4165 net.cpp:394] relu2_p <- conv2_p
I0106 19:56:48.773841  4165 net.cpp:345] relu2_p -> conv2_p (in-place)
I0106 19:56:48.773855  4165 net.cpp:96] Setting up relu2_p
I0106 19:56:48.773867  4165 net.cpp:103] Top shape: 100 256 13 13 (4326400)
I0106 19:56:48.773880  4165 net.cpp:67] Creating Layer conv3_p
I0106 19:56:48.773891  4165 net.cpp:394] conv3_p <- conv2_p
I0106 19:56:48.773906  4165 net.cpp:356] conv3_p -> conv3_p
I0106 19:56:48.773921  4165 net.cpp:96] Setting up conv3_p
I0106 19:56:48.781611  4165 net.cpp:103] Top shape: 100 384 11 11 (4646400)
I0106 19:56:48.781632  4165 net.cpp:436] Sharing parameters 'conv3_w' owned by layer 'conv3', param index 0
I0106 19:56:48.781738  4165 net.cpp:436] Sharing parameters 'conv3_b' owned by layer 'conv3', param index 1
I0106 19:56:48.781757  4165 net.cpp:67] Creating Layer relu3_p
I0106 19:56:48.781771  4165 net.cpp:394] relu3_p <- conv3_p
I0106 19:56:48.781785  4165 net.cpp:345] relu3_p -> conv3_p (in-place)
I0106 19:56:48.781800  4165 net.cpp:96] Setting up relu3_p
I0106 19:56:48.781810  4165 net.cpp:103] Top shape: 100 384 11 11 (4646400)
I0106 19:56:48.781826  4165 net.cpp:67] Creating Layer conv4_p
I0106 19:56:48.781838  4165 net.cpp:394] conv4_p <- conv3_p
I0106 19:56:48.781853  4165 net.cpp:356] conv4_p -> conv4_p
I0106 19:56:48.781867  4165 net.cpp:96] Setting up conv4_p
I0106 19:56:48.790524  4165 net.cpp:103] Top shape: 100 256 9 9 (2073600)
I0106 19:56:48.790545  4165 net.cpp:436] Sharing parameters 'conv4_w' owned by layer 'conv4', param index 0
I0106 19:56:48.790559  4165 net.cpp:436] Sharing parameters 'conv4_b' owned by layer 'conv4', param index 1
I0106 19:56:48.790571  4165 net.cpp:67] Creating Layer relu4_p
I0106 19:56:48.790583  4165 net.cpp:394] relu4_p <- conv4_p
I0106 19:56:48.790596  4165 net.cpp:345] relu4_p -> conv4_p (in-place)
I0106 19:56:48.790621  4165 net.cpp:96] Setting up relu4_p
I0106 19:56:48.790644  4165 net.cpp:103] Top shape: 100 256 9 9 (2073600)
I0106 19:56:48.790660  4165 net.cpp:67] Creating Layer concat
I0106 19:56:48.790673  4165 net.cpp:394] concat <- conv4
I0106 19:56:48.790684  4165 net.cpp:394] concat <- conv4_p
I0106 19:56:48.790696  4165 net.cpp:356] concat -> concat
I0106 19:56:48.790940  4165 net.cpp:96] Setting up concat
I0106 19:56:48.790964  4165 net.cpp:103] Top shape: 100 512 9 9 (4147200)
I0106 19:56:48.790982  4165 net.cpp:67] Creating Layer fc5
I0106 19:56:48.790992  4165 net.cpp:394] fc5 <- concat
I0106 19:56:48.791007  4165 net.cpp:356] fc5 -> fc5
I0106 19:56:48.791023  4165 net.cpp:96] Setting up fc5
I0106 19:56:48.840823  4165 net.cpp:103] Top shape: 100 128 1 1 (12800)
I0106 19:56:48.840905  4165 net.cpp:67] Creating Layer relu5
I0106 19:56:48.840921  4165 net.cpp:394] relu5 <- fc5
I0106 19:56:48.840937  4165 net.cpp:345] relu5 -> fc5 (in-place)
I0106 19:56:48.840955  4165 net.cpp:96] Setting up relu5
I0106 19:56:48.840967  4165 net.cpp:103] Top shape: 100 128 1 1 (12800)
I0106 19:56:48.840982  4165 net.cpp:67] Creating Layer fc6
I0106 19:56:48.840992  4165 net.cpp:394] fc6 <- fc5
I0106 19:56:48.841006  4165 net.cpp:356] fc6 -> fc6
I0106 19:56:48.841022  4165 net.cpp:96] Setting up fc6
I0106 19:56:48.841078  4165 net.cpp:103] Top shape: 100 32 1 1 (3200)
I0106 19:56:48.841097  4165 net.cpp:67] Creating Layer relu6
I0106 19:56:48.841110  4165 net.cpp:394] relu6 <- fc6
I0106 19:56:48.841125  4165 net.cpp:345] relu6 -> fc6 (in-place)
I0106 19:56:48.841137  4165 net.cpp:96] Setting up relu6
I0106 19:56:48.841150  4165 net.cpp:103] Top shape: 100 32 1 1 (3200)
I0106 19:56:48.841163  4165 net.cpp:67] Creating Layer fc7
I0106 19:56:48.841176  4165 net.cpp:394] fc7 <- fc6
I0106 19:56:48.841188  4165 net.cpp:356] fc7 -> fc7
I0106 19:56:48.841203  4165 net.cpp:96] Setting up fc7
I0106 19:56:48.841223  4165 net.cpp:103] Top shape: 100 8 1 1 (800)
I0106 19:56:48.841239  4165 net.cpp:67] Creating Layer loss
I0106 19:56:48.841253  4165 net.cpp:394] loss <- fc7
I0106 19:56:48.841264  4165 net.cpp:394] loss <- label
I0106 19:56:48.841279  4165 net.cpp:356] loss -> loss
I0106 19:56:48.841296  4165 net.cpp:96] Setting up loss
I0106 19:56:48.841320  4165 net.cpp:103] Top shape: 1 1 1 1 (1)
I0106 19:56:48.841333  4165 net.cpp:109]     with loss weight 1
I0106 19:56:48.841763  4165 net.cpp:170] loss needs backward computation.
I0106 19:56:48.841779  4165 net.cpp:170] fc7 needs backward computation.
I0106 19:56:48.841791  4165 net.cpp:170] relu6 needs backward computation.
I0106 19:56:48.841804  4165 net.cpp:170] fc6 needs backward computation.
I0106 19:56:48.841815  4165 net.cpp:170] relu5 needs backward computation.
…
